Weight/best_weight.tflite (tflite, 14908 bytes, 8 tensors)

sequential_123/re_lu_369/Relu;sequential_123/batch_normalization_123/batchnorm/add_1;sequential_123/conv1d_123/Conv1D/Squeeze;sequential_123/batch_normalization_123/batchnorm/mul_1;sequential_123/conv1d_123/BiasAdd;sequential_123/conv1d_123/BiasAdd/ReadVariableOp;sequential_123/batch_normalization_123/batchnorm/mul;sequential_123/batch_normalization_123/batchnorm/sub;sequential_123/conv1d_123/Conv1D f4 [3]
000000 fd cb aa bd e2 41 cb bd 10 d0 af bd
       -0.08339689 -0.099246755 -0.08584607

sequential_123/batch_normalization_123/batchnorm/mul_1;sequential_123/conv1d_123/Conv1D/Squeeze;sequential_123/conv1d_123/BiasAdd;sequential_123/conv1d_123/BiasAdd/ReadVariableOp;sequential_123/batch_normalization_123/batchnorm/mul;sequential_123/conv1d_123/Conv1D f4 [3, 1, 85, 1]
000000 d2 bc 33 be 0e 53 8b be 77 62 62 be 03 a7 0b be
       -0.17552498 -0.27211803 -0.22107874 -0.13637929
000010 07 6c 36 3e cf fc b0 3e 26 76 dc 3e ad 3f cd 3e
       0.17814647 0.34567878 0.4305889 0.40087643
000020 d9 b9 bc 3e 5a 46 eb 3d aa 09 eb bd 22 1f d1 be
       0.3686054 0.11488028 -0.11476453 -0.40844065
000030 cc 2a cb be 97 b6 11 bf 39 1f f0 be b2 a0 ab be
       -0.3968109 -0.56919235 -0.4689882 -0.33521038
000040 8f 8c 28 be 8e 7f d5 3c 77 57 a9 3e 7c 2c e5 3e
       -0.16459869 0.0260618 0.33074543 0.447605
000050 09 ec 08 3f a6 42 1c 3f 0c 23 d2 3e 6f 81 48 3e
       0.5348516 0.610392 0.41042364 0.19580625
000060 57 67 a2 bd a7 94 95 be 46 17 19 bf 6b 10 28 bf
       -0.07929867 -0.29214975 -0.5980114 -0.6565005
000070 cd 2c 10 bf 50 34 e5 be e4 c9 b6 bd eb 97 c3 3d
       -0.5631836 -0.44766474 -0.08925226 0.095504604
000080 b5 a3 e5 3e de e2 14 3f a4 b6 25 3f 0f e1 01 3f
       0.4485146 0.5815867 0.6473181 0.5073404
000090 0f 20 d9 3e 87 d3 d2 3d a3 31 57 be 88 52 d4 be
       0.4240727 0.10294252 -0.21015029 -0.41469216
0000a0 48 eb fb be 25 f5 13 bf b9 4e fc be 44 30 ac be
       -0.49202943 -0.57795936 -0.4927881 -0.33630574
0000b0 bd be 0f be da d9 82 3e d4 7a fa 3e e8 86 15 3f
       -0.14037605 0.25556833 0.48921835 0.58408976
0000c0 53 3b 08 3f 94 70 b4 3e 35 c9 43 3e 2b 2b 2c bd
       0.5321552 0.3524214 0.19119723 -0.042033356
0000d0 1c f1 be be 7d e7 e9 be d7 21 c4 be 27 6a ab be
       -0.37293327 -0.45684424 -0.38307068 -0.33479425
0000e0 4f f5 fa bd c2 8c ba 3d 77 64 4a 3d 4b 53 e6 3d
       -0.1225382 0.09108879 0.049412217 0.112463556
0000f0 3e 29 3e 3e be 9f 74 3e 7c cf 16 3e 6f f6 eb bb
       0.1857042 0.23889062 0.14727587 -0.007201008
000100 3e ed f9 bc 13 d7 b7 bd a8 a7 d1 bd 2e 18 cc bc
       -0.030508634 -0.08976569 -0.10237056 -0.024913874
000110 89 b4 ca 3c 1f 1b 57 bd c7 1d ee 3c 9a 52 1d 3d
       0.024744289 -0.0525161 0.029066933 0.038408853
000120 7b ea 47 3d 4d f9 81 3c 87 e3 88 bb d6 f7 da 3b
       0.048807602 0.015865946 -0.004177514 0.0066823764
000130 de 72 ff 3b a6 a9 b1 3d a2 14 50 bd 71 3e 6d 3d
       0.0077956757 0.08674936 -0.050800927 0.057920877
000140 98 78 65 bc 98 cc 34 bd 81 8d a6 bc e8 c5 6d 3d
       -0.014005803 -0.04414043 -0.020331146 0.058050066
000150 ec 92 1b 3d 0f d0 4a 3e c3 70 68 3e ff 20 b6 3d
       0.037981912 0.1980593 0.22699265 0.08893012
000160 de f1 7f 3d 94 a3 85 3c 5e 41 3c bc 19 ae 22 3d
       0.062486522 0.016313352 -0.011490194 0.039716814
000170 d8 5e d8 bc bf e0 07 be 04 51 61 be fe 79 d7 be
       -0.026412413 -0.13269328 -0.22003561 -0.4208526
000180 69 2b 97 be a6 50 1d be dd 7e 1d 3d ef 04 7f 3e
       -0.29525307 -0.15362796 0.038451064 0.24904226
000190 19 e7 ab 3e 5b 58 13 3f ff ee e0 3e 2c 8f a9 3e
       0.3357475 0.57556695 0.4393234 0.33117044
0001a0 3a da a3 3d bc 6a 61 be 79 41 de be ed 76 0f bf
       0.08000608 -0.22013372 -0.43409327 -0.5604084
0001b0 3f 47 2d bf 9c 15 10 bf 0d e5 9c be b0 c0 aa bd
       -0.6768684 -0.56282973 -0.30643502 -0.083375335
0001c0 10 cc 53 3e 39 c4 03 3f 2e b1 2d 3f 95 fc 31 3f
       0.20683312 0.51471287 0.6784848 0.69526035
0001d0 cf 03 01 3f 37 43 9c 3e 27 09 13 bd 5e 5d d5 be
       0.50396436 0.3052003 -0.0358974 -0.41672796
0001e0 36 9a 34 bf fc 47 2f bf 9c e4 21 bf 00 11 e7 be
       -0.7054781 -0.68469214 -0.63239455 -0.45130157
0001f0 4b 2c 60 be 7c 17 1c 3e f0 e5 ec 3e ed 68 2f 3f
       -0.21891896 0.15243334 0.46269178 0.6851948
000200 4c 46 39 3f 45 d3 c3 3e 4d 1c 3f 3d 47 80 d6 bd
       0.7237289 0.38247123 0.04665785 -0.10473686
000210 b2 2e cb be f9 d6 ec be 7c d7 04 bf a2 76 e5 be
       -0.39684063 -0.4625776 -0.51891303 -0.44817072
000220 00 5a 89 be 0b 50 31 be d3 da 05 3e 61 35 af 3e
       -0.26826477 -0.1731569 0.13071756 0.34220412
000230 96 45 c4 3e 32 eb e5 3e 8a 2b cf 3e 1e ab b1 3d
       0.3833434 0.44906002 0.40462905 0.08675216
000240 74 c6 ac bd 70 04 82 be 1f a8 cc be 90 98 89 be
       -0.084362894 -0.2539401 -0.39972016 -0.26874208
000250 1a 68 ef bd bd ed d9 3d 3b 29 aa 3d d7 4f 19 3e
       -0.11689778 0.10641048 0.08308645 0.14971863
000260 af 4f a4 3d 47 35 ff 3d 95 c9 7d 3d 7e d7 3a bd
       0.08023011 0.12461334 0.06195982 -0.045615666
000270 d2 cb 5c bd dd bf 55 3c 27 30 cd 3b e1 e1 8d 3c
       -0.053905316 0.013046232 0.0062618437 0.017319622
000280 8b d7 ce 3b ee 0d 88 bc ef df d7 3d ff 03 26 3d
       0.006312316 -0.016608205 0.10540759 0.040531155
000290 6f 15 98 3d 70 f7 30 bd d3 bf bb bc cc 0b 58 3b
       0.07425963 -0.043204725 -0.022918617 0.0032966016
0002a0 72 0c 15 3d a5 52 b8 bd 7e e5 59 3d dd 3a 57 3e
       0.036388822 -0.09000138 0.053197376 0.21018548
0002b0 36 c4 2d 3e 50 4b 50 3e 20 0a 9d 3d 6e 6c 75 be
       0.1696938 0.2034123 0.07667947 -0.23967144
0002c0 67 e6 dc be d2 b6 b4 be d8 a8 a0 be 1b 0e b4 bd
       -0.43144533 -0.3529573 -0.31378818 -0.08791753
0002d0 91 db 20 3e 82 5b af 3e cb b6 0a 3f 1b 65 f4 3e
       0.15708758 0.34249502 0.5418517 0.47733387
0002e0 6f 73 c7 3e 1e 43 a3 3c a8 f8 06 be f7 84 cf be
       0.38955256 0.019929465 -0.13180792 -0.40531132
0002f0 af 9d 17 bf 0f 70 09 bf 9c 4b f6 be 44 58 64 be
       -0.5922498 -0.5368661 -0.4810456 -0.22299296
000300 54 c4 ae 3d 2f cf 93 3e b2 c2 15 3f c2 a3 37 3f
       0.0853354 0.28869006 0.58500206 0.7173425
000310 e6 57 10 3f 61 72 cb 3e 8f d4 c9 3d c0 68 15 be
       0.5638412 0.39735702 0.098549955 -0.1459074
000320 d8 2a ed be 99 c9 1d bf fb 3b 29 bf 2e c0 f1 be
       -0.4632175 -0.6163574 -0.6610715 -0.47216934
000330 0c 9e 7e be 51 b5 53 3b cf 88 b9 3e cd 69 cd 3e
       -0.24864978 0.0032304118 0.3623719 0.40119782
000340 74 0f 11 3f 9c bf f5 3e 2f fc f6 3e 65 ad 54 3e
       0.56664205 0.4799775 0.48239276 0.2076927
000350 42 c1 2e 3a 78 ff 80 be 49 e9 18 bf fb bd 14 bf
       0.0006666371 -0.25194907 -0.59730965 -0.5810239
000360 97 9b 05 bf 70 e1 b8 be 63 0d bf bd 2c d4 63 3e
       -0.52190536 -0.36109495 -0.09328725 0.22248906
000370 b0 94 ab 3e 69 8b ff 3e 2d 19 d8 3e 14 02 8b 3e
       0.33511877 0.4991105 0.42206708 0.27150023
000380 b6 af 83 3d fd 4d 08 be 9c 19 9c be 46 87 4c be
       0.064299986 -0.13311 -0.30488288 -0.19973478
000390 5e 89 70 be 26 92 e2 bd 94 01 63 bb 66 35 30 3e
       -0.23489901 -0.11063032 -0.0034638392 0.1720787
0003a0 44 81 2c 3e ba ab 27 3e 2e 4d f8 3c 26 32 eb bd
       0.16846186 0.16374102 0.03031024 -0.114841744
0003b0 51 9d 3c bd 21 8c 7c bd 8f 62 87 3c f4 06 1a 3d
       -0.046048466 -0.061657075 0.016526489 0.037604287
0003c0 cb 41 c8 bc e0 c1 fe bc ee 3f 4e bb 97 4f 73 3c
       -0.024445435 -0.031098306 -0.003147121 0.014850519
0003d0 78 27 07 3d 29 a1 a9 3c 8c 54 b8 bd 42 c9 16 bb
       0.032996625 0.02070673 -0.09000501 -0.0023008143
0003e0 9a df 13 bd 22 db 26 bd 7a 80 83 bd ef de 49 bd
       -0.036101915 -0.040736325 -0.06420989 -0.04928487
0003f0 ff 2f b3 3c f2 84 f5 3a 64 39 29 bd
       0.021873472 0.0018731637 -0.041314498

sequential_123/dense_371/BiasAdd/ReadVariableOp f4 [2]
000000 72 8e 6e bd 59 8e 6e 3d
       -0.058241315 0.058241222

sequential_123/dense_370/BiasAdd/ReadVariableOp f4 [10]
000000 e7 98 03 be f2 85 8b 3d f5 2f bb bd 5f 8c de be
       -0.12851296 0.068126574 -0.091400065 -0.4346647
000010 50 ac de 3d ef a9 87 3e 9e 0d fa 3e 18 06 7f 3d
       0.1087271 0.26496837 0.48838514 0.06226167
000020 b2 ff 56 3e 3d 4d 60 be
       0.20995978 -0.21904464

sequential_123/dense_369/BiasAdd/ReadVariableOp f4 [20]
000000 e4 2f 56 3e 20 a8 8e 3d 0f b1 74 3d 66 4f fe 3d
       0.20916706 0.06965661 0.05973917 0.12417488
000010 23 ff a9 3e 8f dd 15 bf 52 7f 61 bf 56 61 62 3d
       0.33202466 -0.58541197 -0.880849 0.055268608
000020 dd 3d 57 3d 98 2b 84 3d 25 ab a1 3d 2e 03 fc 3d
       0.05254923 0.06453627 0.07893971 0.12305294
000030 bc d9 a0 3d 0b ab 8e 3d 26 10 52 3e d0 0e 8c 3d
       0.078540295 0.069662176 0.20513973 0.06838763
000040 14 b3 80 bf 13 7c 87 3e ba a7 9a 3d f3 96 bb 3d
       -1.005465 0.2646185 0.075515226 0.09159651

sequential_123/dense_369/MatMul f4 [20, 111]
000000 27 c4 af 3c 83 f7 4d 3d 2e b0 ea 3d 8d d6 db 3d
       0.021455837 0.050284874 0.11459385 0.10734282
000010 0b bf c8 3d 01 d4 77 3d 19 09 95 bd d1 1e cd 3d
       0.098020636 0.060504917 -0.07277126 0.100156434
000020 a4 dd 7a bd 97 7e c6 3c 28 65 5f 3b d2 d6 91 3d
       -0.06124653 0.024230285 0.0034087393 0.07121052
000030 f7 12 51 3e 13 dd 22 bc ef ed 00 bc a2 53 23 bc
       0.20417391 -0.0099404035 -0.007869228 -0.00996867
000040 4d eb a6 3d 3a 52 a4 3d 29 e2 56 3c d6 00 5a 3d
       0.08150349 0.08023496 0.013115444 0.053223453
000050 ea c6 54 bd 1e d4 07 3d 5a f4 a3 3d 13 89 dc bc
       -0.05194751 0.033161275 0.08005591 -0.02692083
000060 0d 4b e7 3d e5 06 94 3d 22 02 18 3e 11 65 0f be
       0.11293612 0.072278775 0.14844564 -0.14003398
000070 09 f4 ca 3b 35 c6 c8 3d e1 2e f8 3d a6 f0 2f be
       0.006193642 0.0980343 0.121183164 -0.17181644
000080 8c 8b 2e bd 5f 69 a6 3c 58 70 57 3b 53 75 50 3d
       -0.04261355 0.020313917 0.0032873359 0.05089314
000090 11 32 99 3d 13 42 af 3d a7 1b 0d 3d 56 2f 64 3e
       0.074802525 0.085575245 0.0344502 0.22283682
0000a0 00 a9 ba 3d 79 e0 e1 3c 4a 13 d8 bd ec 04 6d 3d
       0.091142654 0.027572857 -0.10550554 0.057866022
0000b0 13 69 a5 3c df 21 66 3d 69 d5 24 3d 8b 3a 77 3e
       0.020191705 0.056184646 0.040242586 0.24143426
0000c0 1f 29 08 3c 46 c0 3c bc bf dd a5 3d e4 10 36 3e
       0.008310585 -0.011520451 0.08098935 0.17779881
0000d0 98 c3 0b 3d ab 71 cf bc cb 53 7c bc 84 11 cc 3d
       0.03412208 -0.025322756 -0.015400837 0.09964278
0000e0 9f 4d e6 3d de 16 21 3e a4 0b 7c 3e 59 6d c6 3d
       0.11245274 0.1573138 0.24613816 0.09688825
0000f0 e9 d5 6c 3e 8f f7 a2 3e e2 c0 96 3e 3b c6 ac bd
       0.23128475 0.31829497 0.29444033 -0.08436247
000100 70 4c 89 bd 8d 79 4a 3e ed 4b 9a bd 60 4a 1c be
       -0.067040324 0.1977293 -0.07534013 -0.15262747
000110 64 ad ae bd 70 a2 6d 3e bf 64 61 3e 34 c7 a9 bc
       -0.085291654 0.23206496 0.22011088 -0.02072487
000120 b6 8f 40 3e 9c 9a bc 3e 18 80 57 3d 91 5a 8e 3d
       0.18804821 0.36836708 0.052612394 0.06950868
000130 19 24 f4 bd af 1a 10 3e d1 73 32 3c c1 c0 8d bd
       -0.119209476 0.14072679 0.010891871 -0.069215305
000140 73 38 67 be f2 d4 57 be 45 9d 55 be 16 c5 5a be
       -0.22580127 -0.21077326 -0.20860775 -0.21364245
000150 39 a3 e1 bd 5a 3a 0b bd c8 0a 26 3d 68 c2 67 bd
       -0.110174604 -0.033991195 0.040537626 -0.056581885
000160 11 d6 5b 3e f5 91 36 3d 83 85 39 bd 24 73 a4 3e
       0.21468379 0.04457279 -0.045293342 0.32119095
000170 9f 4f d7 3d 46 4d a1 3d e6 7e c1 3d 31 d6 4b bc
       0.105132334 0.07876067 0.09448032 -0.012441204
000180 8a 4f cf bd 32 60 0a be 54 ed c9 bd 1e 71 fc bd
       -0.10122593 -0.13513258 -0.0985972 -0.12326263
000190 ae cc bd 3d 1c ad 9c 3d 70 4d 94 bc b7 e6 9f 3c
       0.09267555 0.076502055 -0.018103331 0.019519193
0001a0 f9 0f 4d 3e 21 7b 0d 3e 1b 3d b7 bb a9 e1 95 bd
       0.20025624 0.13816501 -0.005592001 -0.07318432
0001b0 bd 41 5d 3d e1 c4 94 3e ca ae aa 3b 4a ff 42 bd
       0.05401777 0.29056457 0.0052088248 -0.047606744
0001c0 ab e3 b8 bc 18 77 f2 bd d7 a6 32 bd 82 ea 10 bc
       -0.022569498 -0.118391216 -0.043616142 -0.0088449735
0001d0 d5 f9 cd bc 25 5d 89 3d 79 3b 8b 3d 62 d2 b4 3c
       -0.025143543 0.06707219 0.06798453 0.022072975
0001e0 a3 2c 9e 3c 59 a1 44 3d 7a ee 4c bc 10 59 94 3c
       0.019308394 0.048005436 -0.012508029 0.018108875
0001f0 9a 34 41 3d 3a dd 72 bc 20 e3 9e 3c 78 9b 16 bd
       0.047169305 -0.014823252 0.019395411 -0.03676936
000200 2e 70 8e 3b 17 b7 0f bd a7 57 ee bc cf 65 e8 3a
       0.004346869 -0.035086717 -0.02909453 0.0017730537
000210 b6 0e f5 bd d6 6a 58 be 77 11 48 be cf b3 05 be
       -0.119656965 -0.21134505 -0.19537912 -0.13056873
000220 27 3c 04 be 7e 6f 3a be e8 8d 20 3d 28 f8 df 3d
       -0.12913571 -0.18206593 0.039197832 0.10936004
000230 81 41 3f 3d cc 0a d6 3d de bf 06 3e 43 32 26 3e
       0.04669333 0.10451278 0.13159129 0.16230111
000240 40 a4 c9 3c 54 2a 25 3b 2c e2 9e 3d 8a 9f 4d be
       0.024614453 0.0025202231 0.077579826 -0.2008039
000250 7a d0 57 be 8f ba aa bd 69 43 40 be f9 8d 91 bd
       -0.21075621 -0.083363645 -0.18775715 -0.07107157
000260 c1 e6 ed bd a4 bb 2e 3e 98 08 c6 3d a4 34 f1 3d
       -0.116162784 0.17063767 0.09669608 0.117776185
000270 50 20 48 bd 8f 13 87 bd a8 f7 85 bd 72 49 b8 be
       -0.04885894 -0.065955274 -0.06541377 -0.35993534
000280 e6 73 99 be 41 3e 8e be 92 ad 80 be 52 43 2f be
       -0.29971236 -0.2778187 -0.25132424 -0.17115524
000290 7a 8c 49 be 5a e0 0f 3e 6b 58 86 3e c1 72 21 3e
       -0.19682494 0.14050427 0.26239333 0.15766431
0002a0 50 45 a8 3e 9b 5b 98 3e 73 6b bd 3e d8 8a dc 3d
       0.3286538 0.2975739 0.3699604 0.1076867
0002b0 e4 0c b7 bd 59 0f a1 3b a2 58 70 be 4f 11 c2 be
       -0.089380056 0.0049151597 -0.2347131 -0.3790383
0002c0 67 fc b5 be 62 e3 cc be 52 dd bc be 41 b7 84 be
       -0.3554413 -0.4001723 -0.36887604 -0.25921062
0002d0 33 52 c4 bd 53 6c ad bc 9b ec 8d bb 8a cd 60 3e
       -0.09585991 -0.021169817 -0.004331184 0.21953407
0002e0 4e 69 83 3e dd fd 46 3e f7 cb a7 3d 23 ff e9 3d
       0.2566628 0.19432779 0.081932 0.114256166
0002f0 75 46 09 3e 53 38 fa bd ce 0a 03 be 1c 87 86 ba
       0.13405783 -0.12217774 -0.1279709 -0.0010263654
000300 11 02 e7 bd 9f 1d fb bd bf d4 fa bd 30 20 97 bd
       -0.11279691 -0.12261509 -0.12247609 -0.07379186
000310 ed 42 20 be d6 fb 39 bd e6 b2 bd bb e0 be 95 bc
       -0.1565053 -0.045406185 -0.0057891486 -0.018279493
000320 1d f6 62 3d fa 12 b6 3d 09 86 90 3c 4e 0f d1 bc
       0.055410493 0.08890338 0.017642038 -0.025519993
000330 af f0 e1 bd f5 bd 33 39 19 f5 14 bd 58 07 0f bd
       -0.11032235 0.00017141535 -0.036366556 -0.034919113
000340 fa 60 1e bc da 61 cf bd d3 4f b4 bd c3 fb 29 bd
       -0.009666676 -0.101260856 -0.08804288 -0.041499864
000350 7a ad 19 3c e1 7d 64 bd 73 ad 96 3d 7a cb 1f bb
       0.009379739 -0.05578411 0.073573016 -0.0024382756
000360 ae e7 14 bc 11 4d 7c bd 39 9e 22 bd fe 33 f9 3c
       -0.00908844 -0.061596934 -0.039701674 0.0304203
000370 fc 86 b2 bd 01 55 86 bd 5c c7 1f 3e 8e 29 dc 3d
       -0.087171525 -0.06559182 0.15603393 0.107501134
000380 e2 f1 d7 3c 6f 3d 7b be ac 1e b6 be a6 5a f8 bd
       0.026360456 -0.24535154 -0.35570276 -0.12126665
000390 d7 70 af be 23 9b a0 be 86 27 9b be d1 f8 98 bd
       -0.34265777 -0.3136836 -0.3030359 -0.07469333
0003a0 c5 be 7c bd 77 7e 1d be f0 3b 48 3e 38 44 58 3e
       -0.06170537 -0.15380274 0.19554114 0.21119773
0003b0 d0 52 78 3e 8b 9c 8e 3e a2 80 87 3e 0e 97 8b 3e
       0.2425034 0.27853808 0.26465327 0.27263683
0003c0 7a 01 12 bc 8e ad af 3c 5b 7b 60 bc ad 1f 35 be
       -0.008911485 0.021445062 -0.013701285 -0.17687865
0003d0 61 a7 29 be df f3 d2 bd 35 c7 9f be 75 fb 3e be
       -0.16567756 -0.10300421 -0.3120667 -0.1865061
0003e0 cb 5e bf bd 8a 7d 42 be bf c7 7f be 39 32 45 be
       -0.09344252 -0.18993202 -0.24978541 -0.1925744
0003f0 be 76 0b be b2 51 9f 3b db d2 3e be 08 ca 79 3d
       -0.13619515 0.0048620338 -0.18635122 0.060983688

sequential_123/dense_370/MatMul f4 [10, 20]
000000 f2 02 e3 be 84 6f 01 be 3d 4d 0f 3f 68 4e 59 3d
       -0.44338185 -0.12640196 0.5597723 0.05305329
000010 a8 16 40 be 09 e5 a4 bd 10 93 f9 bc 39 6a 20 3f
       -0.18758643 -0.080514975 -0.030465633 0.6266208
000020 eb 8e 55 bd 88 4f 99 3e 57 cd ef 3b 9b c6 5b 3e
       -0.05213825 0.2994349 0.0073181796 0.2146248
000030 43 37 1f 3e f6 59 3a 3e 19 43 ec 3e ba af aa 3e
       0.15548424 0.1819838 0.4614494 0.33337194
000040 98 98 82 bd 50 4c dd 3e 69 1b 8b 3e 7d fc f8 3e
       -0.06376761 0.43222284 0.2716935 0.48630133
000050 ad 0c 24 3e 7f 70 34 3f 8f 00 07 3f 69 76 00 3d
       0.1602046 0.70484155 0.5273523 0.031362925
000060 6f e1 30 be 6f 0b 29 be 28 0e 8f be 23 4a 81 3e
       -0.17273496 -0.16508268 -0.27940488 0.25251874
000070 98 41 05 bc df 7a ea 3e a3 8a cd 3e 39 0b 7d 3d
       -0.008133315 0.45796868 0.40144834 0.06177828
000080 70 7c 1d 3f e9 3f a5 3d ab 26 dd bd 5c 26 0b 3f
       0.61518 0.080688305 -0.10798391 0.54355407
000090 ef 64 8e be 1a c5 f0 bd b8 8c c9 3e 47 af f9 3e
       -0.2781138 -0.11756344 0.39365172 0.48766539
0000a0 1c b6 32 3d ad 05 57 bd 17 a2 44 3e 42 2c a3 3e
       0.043630704 -0.052495647 0.19202457 0.31869704
0000b0 41 d4 b3 3e af a8 e7 bd 74 48 3a be 5e ae 0b bd
       0.35122874 -0.11311471 -0.18191701 -0.034101836
0000c0 b9 d6 61 3e 80 7e 37 3e d2 3c 3f 3e a0 30 d5 be
       0.22054566 0.1791935 0.18675545 -0.4163866
0000d0 bb 59 26 3e 64 b8 c8 be c3 18 46 3e f3 f1 a6 bd
       0.16245167 -0.3920318 0.19345383 -0.08151617
0000e0 05 46 40 bd 7d 7a 9f be 59 c1 7d bd 03 f4 26 3e
       -0.046941776 -0.3114814 -0.06195197 0.1630402
0000f0 39 db 89 be 35 bd ba be 74 be 89 bd b2 10 fd bd
       -0.26925066 -0.36472479 -0.06725779 -0.123567
000100 24 0c 45 3d 76 16 c8 be 79 d6 b3 bd 8a 2a 16 be
       0.04810728 -0.39079636 -0.08781142 -0.14664665
000110 01 27 b8 3b ad 77 8b be cf 53 6e 3d c8 83 c3 3e
       0.005619884 -0.27239743 0.058185395 0.3818648
000120 12 3e 45 bc 87 a8 21 be 18 78 91 3e a0 d3 ac 3e
       -0.0120387245 -0.15786944 0.28411937 0.33755207
000130 37 6d 3c bd 10 61 7a be 8d 52 83 3e 9f 67 89 be
       -0.046002593 -0.24451089 0.2564892 -0.2683687
000140 77 48 2c be 35 f0 e1 3e bf 40 16 3f 98 58 87 bc
       -0.16824518 0.44128576 0.58692545 -0.016521737
000150 94 4d 1a 3d d6 51 32 be 2a d0 c2 be 8b 2a 2e 3f
       0.03767164 -0.1741403 -0.38049442 0.68033665
000160 dd ac 30 3f 59 e9 3c 3f 42 dc 2d 3f d3 71 88 be
       0.6901377 0.7379356 0.6791421 -0.2664934
000170 42 97 39 3f 4f 4c 28 3f 27 b7 8b bc d2 a1 e2 3e
       0.72496426 0.6574144 -0.017055107 0.44264084
000180 7d 5a 8e be d6 73 dc 3c b0 05 f0 3e 10 5a 1a 3f
       -0.27803412 0.026910704 0.4687934 0.60293674
000190 59 56 73 3d 5c 88 05 bf 7f 43 f6 bd 30 35 75 3e
       0.05940852 -0.5216119 -0.120245926 0.2394607
0001a0 f0 a1 8e bd 81 fe 97 3e c2 e4 45 3d d6 d5 dc be
       -0.06964481 0.2968636 0.048313864 -0.43131894
0001b0 8a d1 92 be 5e c6 fa be a4 16 a3 be bb 1a ad 3e
       -0.2867549 -0.48979467 -0.3185321 0.33809456
0001c0 87 76 62 bd 4f 7f c9 be b9 07 03 3e 21 d8 a3 be
       -0.055288818 -0.3935494 0.12795915 -0.3200083
0001d0 69 06 e8 3c 44 aa c8 3e e5 15 a2 be 63 7a d4 bd
       0.02832337 0.39192402 -0.3165733 -0.10374906
0001e0 a9 d6 65 3e 77 78 45 bf 21 d3 93 be 0a bc 0f 3e
       0.22445168 -0.7713694 -0.28872016 0.14036575
0001f0 57 e5 42 3e 6b f0 95 be 68 d8 ac be 2e 3f 83 be
       0.19032799 -0.29284987 -0.33758855 -0.2563414
000200 a5 8d 29 bf 9e b0 3e bf c2 b2 95 be 99 57 8a 3e
       -0.6623176 -0.74488246 -0.29237944 0.27019957
000210 34 8f 85 be 0c 9f 0f bf cc ab f3 3d 77 55 85 be
       -0.26085818 -0.5610206 0.11898002 -0.26041767
000220 ad d7 24 bf f2 3c 0b 3e a7 4a 17 bf 82 c8 24 bf
       -0.64391595 0.13597468 -0.59098285 -0.6436845
000230 52 90 ba 3d ca 18 39 3f e9 e3 c5 3e 0f a4 e0 be
       0.09109558 0.7230345 0.38650444 -0.43875167
000240 f3 bc 5f 3e d4 38 bd be 10 31 c6 be 25 65 55 3f
       0.21849422 -0.3695742 -0.38709307 0.8335746
000250 de fb 24 3f e3 5f e3 3e fb d8 46 3f 80 29 d5 3d
       0.6444682 0.44409093 0.77674836 0.10408306
000260 86 87 f4 3e 0c 5d 1d 3f a9 9c 2a be 87 09 41 3f
       0.47759646 0.61470103 -0.16661324 0.7540516
000270 e0 ed 5f be 2f 00 46 be 00 f0 d8 3e de 59 cc 3c
       -0.21868086 -0.19336008 0.42370605 0.024945196
000280 83 02 73 3e 9a 3b 09 3e 20 b7 0c 3e ac 9a 8a 3e
       0.23731427 0.13401642 0.13741732 0.2707113
000290 91 7d 58 3d df 1a 20 bf f9 a1 99 be 3c 72 23 be
       0.052854124 -0.62541 -0.30006388 -0.15961546
0002a0 3f a0 7a bd d8 cf 1f be df c2 d7 be db 51 ac be
       -0.06118798 -0.1560663 -0.42140862 -0.336562
0002b0 ea a5 c8 be 6e b3 4e bd e3 3a 03 3e 31 cc 38 be
       -0.39189082 -0.050464086 0.12815432 -0.18046643
0002c0 4e fc 70 3e 3a 09 ec 3d de 8d 93 3b 2e 6a 36 bf
       0.23533747 0.11525197 0.004502996 -0.7125577
0002d0 7d d5 96 3e 06 ee 7d 3e 7d 95 49 3e 5e 8f ab 3e
       0.29459754 0.2479783 0.19685932 0.33507818
0002e0 58 90 52 be 09 d5 89 3e 7e 2c 00 be 8e 73 5c be
       -0.20562875 0.26920345 -0.12516972 -0.21528456
0002f0 cd 0b a4 3e 05 a9 42 be 28 47 c1 3e 0d c0 ca 3e
       0.32040253 -0.19009788 0.377496 0.39599648
000300 68 35 21 3f f1 af 35 bc 30 2c d2 bd 76 4c 88 3e
       0.62972116 -0.011089311 -0.10262334 0.26620835
000310 5a aa 50 be 59 b9 b5 3e 12 30 a8 bd 3e a6 a7 3e
       -0.20377484 0.35492972 -0.08212294 0.3274402

sequential_123/dense_371/MatMul f4 [2, 10]
000000 3e ce ca 3e e7 3c d6 3e bc dd 5a 3e 47 21 3b 3e
       0.39610475 0.4184334 0.21373647 0.18274413
000010 10 32 8f 3f 95 c3 fc be 2e 45 11 bf b2 10 50 3f
       1.1187153 -0.49367967 -0.56746185 0.81275475
000020 89 f6 ca 3e b3 ed e3 3e 9f 01 5a be ad 5a 8b bf
       0.39641216 0.44517288 -0.21289681 -1.0887047
000030 ee 7d e2 3d 22 ae bd 3e de fc cd bf 58 0c 23 3f
       0.110591754 0.37046915 -1.6092794 0.6369071
000040 c2 f6 06 3f 71 b8 a2 bf 29 3d 0f 3f f5 bd b4 be
       0.5272027 -1.2712537 0.559527 -0.35301176
